…
kers=12, workspace=None\n"]},{"metadata":{"tags":null},"name":"stderr","output_type":"stream","text":["Downloading https://ultralytics.com/assets/Arial.ttf to '/root/.config/Ultralytics/Arial.ttf': 100%|██████████| 755k/755k [00:00<00:00, 14.1MB/s]"]},{"metadata":{"tags":null},"name":"stdout","output_type":"stream","text":["Overriding model.yaml nc=80 with nc=11\n","WARNING ⚠️ no model scale passed. Assuming scale='l'.\n","\n","                   from  n    params  module                                       arguments                     \n","  0                  -1  1     25248  ultralytics.nn.modules.block.HGStem          [3, 32, 48]                   \n","  1                  -1  6    155072  ultralytics.nn.modules.block.HGBlock         [48, 48, 128, 3, 6]           \n","  2                  -1  1      1408  ultralytics.nn.modules.conv.DWConv           [128, 128, 3, 2, 1, False]    \n","  3                  -1  6    839296  ultralytics.nn.modules.block.HGBlock         [128, 96, 512, 3, 6]          \n","  4                  -1  1      5632  ultralytics.nn.modules.conv.DWConv           [512, 512, 3, 2, 1, False]    \n","  5                  -1  6   1695360  ultralytics.nn.modules.block.HGBlock         [512, 192, 1024, 5, 6, True, False]\n","  6                  -1  6   2055808  ultralytics.nn.modules.block.HGBlock         [1024, 192, 1024, 5, 6, True, True]\n","  7                  -1  6   2055808  ultralytics.nn.modules.block.HGBlock         [1024, 192, 1024, 5, 6, True, True]\n","  8                  -1  1     11264  ultralytics.nn.modules.conv.DWConv           [1024, 1024, 3, 2, 1, False]  \n"]},{"metadata":{"tags":null},"name":"stderr","output_type":"stream","text":["\n"]},{"metadata":{"tags":null},"name":"stdout","output_type":"stream","text":["  9                  -1  6   6708480  ultralytics.nn.modules.block.HGBlock         [1024, 384, 2048, 5, 6, True, False]\n"," 10                  -1  1    524800  ultralytics.nn.modules.conv.Conv             [2048, 256, 1, 1, None, 1, 1, False]\n"," 11                  -1  1    789760  ultralytics.nn.modules.transformer.AIFI      [256, 1024, 8]                \n"," 12                  -1  1     66048  ultralytics.nn.modules.conv.Conv             [256, 256, 1, 1]              \n"," 13                  -1  1         0  torch.nn.modules.upsampling.Upsample         [None, 2, 'nearest']          \n"," 14                   7  1    262656  ultralytics.nn.modules.conv.Conv             [1024, 256, 1, 1, None, 1, 1, False]\n"," 15            [-2, -1]  1         0  ultralytics.nn.modules.conv.Concat           [1]                           \n"," 16                  -1  3   2232320  ultralytics.nn.modules.block.RepC3           [512, 256, 3]                 \n"," 17                  -1  1     66048  ultralytics.nn.modules.conv.Conv             [256, 256, 1, 1]              \n"," 18                  -1  1         0  torch.nn.modules.upsampling.Upsample         [None, 2, 'nearest']          \n"," 19                   3  1    131584  ultralytics.nn.modules.conv.Conv             [512, 256, 1, 1, None, 1, 1, False]\n"," 20            [-2, -1]  1         0  ultralytics.nn.modules.conv.Concat           [1]                           \n"," 21                  -1  3   2232320  ultralytics.nn.modules.block.RepC3           [512, 256, 3]                 \n"," 22                  -1  1    590336  ultralytics.nn.modules.conv.Conv             [256, 256, 3, 2]              \n"," 23            [-1, 17]  1         0  ultralytics.nn.modules.conv.Concat           [1]                           \n"," 24                  -1  3   2232320  ultralytics.nn.modules.block.RepC3           [512, 256, 3]                 \n"," 25                  -1  1    590336  ultralytics.nn.modules.conv.Conv             [256, 256, 3, 2]              \n"," 26            [-1, 12]  1         0  ultralytics.nn.modules.conv.Concat           [1]                           \n"," 27                  -1  3   2232320  ultralytics.nn.modules.block.RepC3           [512, 256, 3]                 \n"," 28        [21, 24, 27]  1   7324457  ultralytics.nn.modules.head.RTDETRDecoder    [11, [256, 256, 256]]         \n","rt-detr-l summary: 457 layers, 32,828,681 parameters, 32,828,681 gradients, 108.0 GFLOPs\n","\n","Transferred 926/941 items from pretrained weights\n","\u001b[34m\u001b[1mAMP: \u001b[0mrunning Automatic Mixed Precision (AMP) checks...\n"]},{"metadata":{"tags":null},"name":"stderr","output_type":"stream","text":["Downloading https://github.com/ultralytics/assets/re
…
